04_federatedfinetuningLLMs/my_fl_model/adapter_model.bin (torch, 791378 bytes, 12 tensors)

base_model.model.gpt_neox.layers.0.attention.query_key_value.lora_A.weight f4 [16, 512]
0.028263781 -0.021033257 -0.042385954 -0.023961041 0.012773351 -0.014945907 0.008568674 -0.0011519697
0.03294316 -0.034825083 0.014066611 -0.03693912 -0.02597067 -0.021514695 0.039804477 0.040040098
0.028114121 0.02349902 -0.020104228 -0.045072455 0.023961175 -0.03436017 0.024290519 0.017031519
-0.03510589 -0.0032743607 -0.00910211 0.00491291 0.00568282 0.03769639 -0.020741597 0.030572522
-0.037088756 -0.022995524 0.02606295 0.025464674 0.016228061 0.029797027 -0.027270053 0.0024945089
0.028238915 -0.03520222 -0.009981925 -0.035776548 -0.018612586 0.003913649 -0.03251918 0.047983985
0.015555548 0.017065192 -0.023437886 -0.04480498 0.03102708 -0.042132005 -0.022659509 -0.025597565
-0.010895418 0.030959463 0.009169279 -0.033630114 0.0331327 0.023715058 -0.03387621 0.024533363
0.011101892 -0.016658949 -0.031864196 0.008635927 0.023567352 -0.046532024 0.006427829 0.002714816
0.031780228 -0.017614193 0.019336447 0.035136525 -0.02410813 -0.011986557 -0.027193721 -0.034969553
0.02560244 0.012638434 0.0056199324 0.023127956 -0.04132844 -0.0068429457 -0.040706016 0.009956201
0.022680782 -0.01671282 -0.035464104 0.014803613 -0.012116337 -0.022386746 0.033052493 -0.010484795
0.037128616 0.01792976 -0.03782103 0.018625785 -0.012773039 0.011579761 0.029388096 0.008652547
-0.0016807711 0.03443056 0.03912355 0.030180806 -0.027824739 -0.0053517595 0.00316243 -0.033115383
-0.024820922 0.00047440725 0.022753641 0.046406593 -0.01541652 -0.017185602 -0.011539257 0.037136007
0.044473507 0.014819699 0.048373513 0.01702732 0.044922683 0.0018203297 0.015553665 -0.010556877
-0.02765063 0.014287846 0.005371316 -0.0033166783 0.03986379 -0.026980707 -0.023981808 -0.03915063
0.042553715 0.019881347 0.016680043 0.022456827 -0.009282367 0.038905784 -0.011008868 0.0058897994
0.03019671 0.018080303 -0.024550753 -0.014669075 -0.033713937 -0.04449415 0.031189527 -0.040948004
-0.025268618 -0.030934617 0.041950367 0.020523222 0.041690286 0.0022153235 -0.03634722 -0.027850494
0.021875296 0.036701616 0.030275539 0.022594523 -0.04323719 -0.024514219 -0.028431492 0.025115559
0.036587782 -0.036862995 0.030828789 0.014972231 -0.003470239 -0.028525406 0.0034089563 0.0412521
-0.012515799 -0.023027735 -0.01452444 1.7446277e-05 0.016419722 0.01868635 0.02776203 -0.01033521
0.01960914 0.012041574 -0.0076425998 0.009888379 -0.038661394 -0.0059491373 0.03690577 0.0036546441
-0.015843937 0.031016234 -0.0036396848 0.02276053 -0.02924249 0.017873647 -0.019508868 0.0023991102
-0.033618044 0.022542685 0.031072203 -0.0034355496 -0.025129823 0.026426626 -0.009464362 0.0033156672
-0.0024969145 0.042504735 0.021998897 0.0071639307 0.008543576 0.008198049 -0.036904544 0.032939103
-0.046717327 0.044579905 0.0057465117 -0.011338109 0.020720378 -0.029503526 0.029739361 -0.032005887
-0.032189004 0.020178694 0.027805561 0.03713063 0.04187503 0.03673589 -0.00042148947 -0.0076590306
-0.008812989 0.02566876 0.042700868 0.019608783 -0.014664207 0.043744564 0.017632477 0.006070722
0.046450965 0.0042498247 0.020848842 -0.02923425 -0.0049009006 0.020834709 0.007575844 0.030146802
0.0011378727 0.025522634 0.025444135 -0.02622305 0.03766297 -0.023285182 -0.011289292 0.030144133
00000000: 7289 e73c f04d acbc e59c 2dbd f249 c4bc
00000010: 5147 513c addf 74bc a063 0c3c b0fd 96ba
00000020: 68ef 063d bfa4 0ebd a577 663c 7a4d 17bd
00000030: 71c0 d4bc 963f b0bc 050a 233d 1601 243d
00000040: 964f e63c 0481 c03c 9fb1 a4bc e59d 38bd
00000050: 3a4a c43c 40bd 0cbd e9fc c63c af85 8b3c
00000060: 32cb 0fbd a896 56bb 0421 15bc 7afc a03b
00000070: f336 ba3b 8867 1a3d 48ea a9bc 3a73 fa3c
00000080: 61ea 17bd 1c61 bcbc f881 d53c 4b9b d03c
00000090: b6f0 843c e518 f43c 7265 dfbc ea7a 233b
000000a0: 4c55 e73c 3430 10bd 3a8b 23bc 6e8a 12bd
000000b0: 6c79 98bc 113e 803b d532 05bd db8a 443d
000000c0: b2dc 7e3c 4dcc 8b3c cf00 c0bc 6d85 37bd
000000d0: 812c fe3c 9c92 2cbd 6fa0 b9bc fcb1 d1bc
000000e0: b282 32bc b39e fd3c be3a 163c bbbf 09bd
000000f0: 27b6 073d 1546 c23c c8c1 0abd 31fa c83c
00000100: b6e4 353c 5978 88bc 0884 02bd b47d 0d3c
00000110: 5210 c13c 5d98 3ebd 8aa0 d23b 0eeb 313b
00000120: fc2b 023d a44b 90bc 7867 9e3c 51eb 0f3d
00000130: 6a7e c5bc 4463 44bc 5ec5 debc 3c3c 0fbd
00000140: 35bc d13c 6f11 4f3c 6927 b83b d776 bd3c
00000150: 0348 29bd ca3a e0bb 5abb 26bd 551f 233c
00000160: 0ccd b93c 53e9 88bc cf42 11bd da8a 723c
00000170: 9a83 46bc 6964 b7bc 0d62 073d 6bc8 2bbc
00000180: 2d14 183d 6fe1 923c 39ea 1abd 1a95 983c
00000190: 0246 51bc 0ab9 3d3c 4ebf f03c 6ac3 0d3c
000001a0: 524d dcba 0f07 0d3d 0440 203d bd3d f73c
000001b0: b5f0 e3bc d05d afbb c540 4f3b ffa3 07bd
000001c0: 3f55 cbbc ddb9 f839 d865 ba3c d714 3e3d
000001d0: 9295 7cbc d2c8 8cbc 270f 3dbc ed1b 183d
000001e0: da29 363d 53ce 723c 4e23 463d e17c 8b3c
000001f0: d900 383d 2198 ee3a cdd4 7e3c c0f6 2cbc
00000200: 9383 e2bc 9217 6a3c dd01 b03b a15c 59bb
00000210: 3748 233d a506 ddbc 7f75 c4bc 695c 20bd
00000220: ce4c 2e3d 35de a23c 96a4 883c 61f7 b73c
00000230: 1215 18bc ac5b 1f3d 8a5e 34bc 38ff c03b
00000240: 175f f73c 251d 943c a91e c9bc 8f56 70bc
00000250: a017 0abd 7f3f 36bd 2e81 ff3c 18b9 27bd
00000260: 2200 cfbc 986a fdbc 26d4 2b3d 5120 a83c
00000270: 6fc3 2a3d f62e 113b d3e0 14bd b826 e4bc
00000280: d233 b33c 6f54 163d 6804 f83c 2618 b93c
00000290: 7b19 31bd 0bd2 c8bc 29e9 e8bc 25bf cd3c
000002a0: 12dd 153d a7fd 16bd a88c fc3c 174e 753c
000002b0: f36c 63bb 1dae e9bc cc68 5f3b f6f7 283d
000002c0: 110f 4dbc a9a4 bcbc ebf7 6dbc 9859 9237
000002d0: a782 863c 1e14 993c 326d e33c 0355 29bc
000002e0: 59a3 a03c 064a 453c c66e fabb de02 223c
000002f0: 695b 1ebd fbf0 c2bb 812a 173d c182 6f3b
00000300: 25cb 81bc c215 fe3c c787 6ebb 4a74 ba3c
00000310: f28d efbc c16b 923c 10d1 9fbc 643a 1d3b
00000320: 13b3 09bd 70ab b83c 228b fe3c f526 61bb
00000330: 0fdd cdbc a77c d83c 6910 1bbc aa4b 593b
00000340: 46a3 23bb 7219 2e3d 0837 b43c 68bf ea3b
00000350: 5bfa 0b3c 1c51 063c 3829 17bd 27eb 063d
00000360: ab5a 3fbd 6b99 363d 3c4d bc3b 7ac3 39bc
00000370: c8bd a93c 61b1 f1bc f69f f33c 9b18 03bd
00000380: 9ed8 03bd ca4d a53c 7dc8 e33c 4a16 183d
00000390: 2785 2b3d 5f78 163d 5cfb dcb9 9bf8 fabb
000003a0: 5b64 10bc 4b47 d23c 1be7 2e3d 99a2 a03c
000003b0: 2442 70bc 802d 333d fc71 903c e8ec c63b
000003c0: 5e43 3e3d 1d42 8b3b 31cb aa3c aa7c efbc
000003d0: bc97 a0bb 8dad aa3c c93e f83b 6df6 f63c
000003e0: ac24 953a d814 d13c 3870 d03c b9d1 d6bc
000003f0: 7d44 1a3d 91c0 bebc b9f6 38bc d4f0 f63c

base_model.model.gpt_neox.layers.0.attention.query_key_value.lora_B.weight f4 [1536, 16]
0.0014047441 -0.0033730776 0.0037336254 0.002756023 -0.0014405906 0.0024686344 -0.0017118908 0.005230335
-0.0060137142 0.001158521 -0.0006432718 -0.004562391 0.0015197439 0.0026535739 0.003283571 -0.006595514
-0.0005956053 0.0028932528 -0.009058909 0.00081135443 -0.0008256416 -0.002269393 0.0067839106 0.0017239032
0.0033773808 0.0045192936 -0.0009395571 -0.0018340597 0.00055225485 -0.004157004 0.0013551293 -0.001597248
0.0032647266 0.003794586 -0.0051273033 -0.0015450318 -0.0018844678 0.0049168076 0.0052699894 -0.002338815
0.0031534594 -0.0041111927 -0.004064641 -0.003941176 -0.0043943147 -0.0045529 -0.00074647163 -0.0059622517
0.0023271416 -0.00039233617 -0.00083619077 -0.005546792 0.00053820864 0.0030971402 0.00050784036 0.0033020463
0.0001808792 -0.0038820708 0.0031892925 0.0034317141 0.007601257 0.00046445703 -0.0016447614 0.0032610449
-0.0021852665 0.0015150084 -0.004273843 -0.0047063697 -0.0012950778 0.0014970923 0.006337794 4.5806304e-05
0.002667075 -0.0049214764 0.00018507893 0.0006641071 -0.0007940161 -0.0009811204 0.0038305123 -0.0003940986
-0.0012874968 -0.0044846092 -0.0011542649 -0.0054662554 0.004650169 -0.0015435796 -0.0010324824 0.00068596454
0.0066536707 0.0040298733 0.00042458577 -0.0037018165 0.0033733195 0.0017039172 0.0022448928 0.00037035136
0.0010227676 0.005704306 0.0033734348 -0.0003368129 -0.00037963077 0.00571816 0.00015953524 -0.0003859034
-0.0044295457 -0.0007134171 0.00083613273 -0.0033913876 -0.0003193761 -0.0034433515 0.0035508599 0.0018601
0.0013847033 -8.671656e-05 0.00084218755 -0.0044313627 -0.002240556 0.002684077 0.0002375461 0.00771281
0.0011332209 0.0012771734 0.0030537874 0.0012976554 -0.0004899132 0.0031620387 0.0008749547 -0.0022442655
-0.0049706926 -0.0034714285 -0.0016844091 0.002691459 -0.0037456886 0.006421383 0.004104027 0.0051329723
-0.002918298 -0.0013258809 -0.00071084144 -0.008136704 -0.0029646242 0.00050737464 -0.003955844 0.0024892304
0.0018378783 0.007251017 -0.0026208584 -0.0011380615 0.0016120017 0.00096175907 -0.0030076837 0.0030894529
-0.009094731 -0.0004979195 -0.0015410798 0.0014947802 0.002891765 -0.006184481 -0.0013815444 0.00198372
0.0016068525 -0.0033986715 -0.0025364063 -0.0041763787 0.0063425126 -0.005587733 0.0057217227 0.005394004
0.012274065 0.0046125716 0.0015311774 0.0012647433 -0.0048031807 0.00011614938 0.000959963 0.0001069513
-0.0007279455 -0.00081750023 0.0009813487 0.0066172923 0.0048187845 -0.0028306874 0.0028168785 0.00036162068
0.008011394 -0.00369356 0.0023074443 -0.008566572 -0.0046600956 -0.0025334426 0.00047705488 0.00012787223
9.135586e-05 -0.007495998 -0.0016966971 0.0075661587 0.0029615401 0.0037979032 0.0006774522 -0.0036942132
-0.003656798 0.0019494145 0.0050042295 0.0029326403 -0.00031105144 -0.00445768 -0.00092303846 0.0015580354
0.001750324 -0.001441031 -1.5562802e-05 -0.0005086944 0.0029391332 -0.0013963382 -0.00058279623 0.0031731743
0.010293677 0.00043719623 -0.0071165306 -0.007785674 0.006249008 -0.00084197 0.0014097949 -0.0036357993
-0.0036501565 -0.0004075458 -0.001972312 0.0028629417 -0.003799189 0.0033824258 0.0033249853 0.0028314008
-0.006308302 0.002882482 0.0019019733 -0.001936293 -0.003266452 -0.0003258827 -0.0018396038 0.00066219503
-0.0067219804 -0.0031248196 0.0032911445 -0.004041435 -0.0021317801 -0.0021763376 -0.004500294 0.00015328455
0.004639946 0.00046012635 -0.00064021884 0.0025330193 0.004241561 -0.0013151604 0.00048552832 0.0030063863
00000000: 641f b83a da0e 5dbb d7af 743b 659e 343b
00000010: 33d2 bcba d0c8 213b 8661 e0ba 3b63 ab3b
00000020: b10e c5bb 84d9 973a 3da1 28ba 1c80 95bb
00000030: 2532 c73a 95e7 2d3b 2e31 573b 2e1f d8bb
00000040: 6522 1cba ba9c 3d3b d16b 14bc 13b1 543a
00000050: df6f 58ba 19ba 14bb 914b de3b 98f4 e13a
00000060: 0c57 5d3b 9516 943b 9c4c 76ba d564 f0ba
00000070: 32c5 103a 7a37 88bb 989e b13a c05a d1ba
00000080: 06f5 553b 97ae 783b f002 a8bb aa82 caba
00000090: 3f00 f7ba 2c1d a13b e0af ac3b ce46 19bb
000000a0: 45aa 4e3b 2fb7 86bb ae30 85bb fb24 81bb
000000b0: 2ffe 8fbb 7e30 95bb ddae 43ba fe5e c3bb
000000c0: f582 183b 78b2 cdb9 d033 5bba ddc1 b5bb
000000d0: 9216 0d3a 64f9 4a3b 9720 053a 2567 583b
000000e0: 64aa 3d39 576a 7ebb 7303 513b 9ce6 603b
000000f0: f713 f93b 5e82 f339 0995 d7ba 41b7 553b
00000100: b036 0fbb 3f93 c63a 980b 8cbb e437 9abb
00000110: 9abf a9ba 153a c43a 45ad cf3b 2520 4038
00000120: 18ca 2e3b 5644 a1bb bf11 4239 7917 2e3a
00000130: 8525 50ba f098 80ba 5509 7b3b 059f ceb9
00000140: 39c1 a8ba a1f3 92bb b44a 97ba 461e b3bb
00000150: 7260 983b f051 caba 5c54 87ba 4dd2 333a
00000160: 0907 da3b 070d 843b f09a de39 2d9a 72bb
00000170: e912 5d3b f955 df3a 0d1f 133b b82b c239
00000180: 630e 863a 30eb ba3b d814 5d3b 4396 b0b9
00000190: 2e09 c7b9 675f bb3b ea48 2739 1453 cab9
000001a0: b925 91bb 9c04 3bba eb2f 5b3a 0b42 5ebb
000001b0: ef71 a7b9 daa9 61bb 8bb5 683b 99ce f33a
000001c0: ef7e b53a 99db b5b8 40c6 5c3a f734 91bb
000001d0: 4bd6 12bb 57e7 2f3b cc15 7939 bdbb fc3b
000001e0: 9588 943a d466 a73a 0d22 483b 1716 aa3a
000001f0: 856d 00ba 353a 4f3b 375d 653a 8714 13bb
00000200: 31e1 a2bb e880 63bb 64c7 dcba 3063 303b
00000210: 3a7a 75bb 776a d23b 137b 863b 7e32 a83b
00000220: ea40 3fbb 2ec9 adba c357 3aba cf4f 05bc
00000230: 244a 42bb 5601 053a 06a0 81bb 5b22 233b
00000240: f6e4 f03a f099 ed3b b5c2 2bbb 022b 95ba
00000250: cd49 d33a 8f1e 7c3a 8f1c 45bb 6b78 4a3b
00000260: 1102 15bc d086 02ba 0ffe c9ba 80ec c33a
00000270: c483 3d3b 30a7 cabb f014 b5ba 4d01 023b
00000280: 069d d23a 3fbc 5ebb d639 26bb 01da 88bb
00000290: dad4 cf3b 4d19 b7bb 4a7d bb3b 2fc0 b03b
000002a0: 2919 493c 0e25 973b cab1 c83a bec5 a53a
000002b0: 0064 9dbb 3995 f338 07a6 7b3a 0b4b e038
000002c0: 98d3 3eba 834d 56ba 99a0 803a dfd5 d83b
000002d0: e5e6 9d3b 0e83 39bb 619b 383b e897 bd39
000002e0: 3942 033c a70f 72bb 7e38 173b cf5a 0cbc
000002f0: b7b3 98bb 1d08 26bb 391d fa39 7115 0639
00000300: 4e96 bf38 fda0 f5bb b563 deba 8aed f73b
00000310: 6616 423b 3ee6 783b 0c97 313a 9d1a 72bb
00000320: e4a6 6fbb 7f83 ff3a 85fa a33b 8a31 403b
00000330: 9e14 a3b9 bb11 92bb 10f8 71ba fe36 cc3a
00000340: 216b e53a fae0 bcba dd8c 82b7 e759 05ba
00000350: 799e 403b 5605 b7ba cbc6 18ba 08f5 4f3b
00000360: d0a6 283c 7c37 e539 c931 e9bb f81e ffbb
00000370: 7ac4 cc3b a6b7 5cba dec8 b83a 9746 6ebb
00000380: 7737 6fbb dfab d5b9 e841 01bb 31a0 3b3b
00000390: d1fb 78bb b0ab 5d3b ffe7 593b 068f 393b
000003a0: dfb5 cebb 06e8 3c3b a24b f93a 36cb fdba
000003b0: f911 56bb 3cdb aab9 dc1e f1ba 2897 2d3a
000003c0: 0f44 dcbb c6c9 4cbb 3eb0 573b 046e 84bb
000003d0: 56b5 0bbb e3a0 0ebb 3477 93bb 02bb 2039
000003e0: b00a 983b 1d3d f139 5cd4 27ba 0301 263b
000003f0: cbfc 8a3b 7661 acba 828e fe39 cb06 453b

base_model.model.gpt_neox.layers.1.attention.query_key_value.lora_A.weight f4 [16, 512]
-0.00279174 -0.023124868 0.035130475 -0.04040963 -0.032113522 -0.01205714 -0.018743487 -0.0076655135
0.026974935 0.029861752 -0.020623457 -0.036651712 0.00912984 -0.009961654 0.030808117 0.0026578242
-0.024073178 -0.006395729 -0.038906105 0.00021528036 -0.04081819 0.035100907 0.029036205 0.011337861
0.008268123 -0.0053776284 0.0112781795 -0.0065887044 0.033992108 0.026451536 0.014009205 0.0157216
-0.007861612 -0.01053595 0.021693842 0.011440501 -0.029125085 0.03412611 -0.029067049 -0.032914776
-0.010792356 0.019647459 -0.029947631 -0.017117731 0.0144473575 -0.03460796 -0.03629774 -0.0048632775
-0.0071060443 0.026230503 0.008138806 0.027668407 -0.02800337 -0.0030139375 0.040971994 -0.020991964
-0.016207876 -0.023842193 -0.025313705 0.04430525 0.032642666 0.038376026 -0.0191166 -0.025019988
-0.012438126 -0.009375081 -0.008001746 0.02929294 0.047095563 -0.05069417 -0.018154306 -0.036580645
0.026924346 -0.033460956 -0.009766538 0.013721771 0.028038869 0.042990237 -0.0379112 -0.0062569696
0.025952829 0.008742536 -0.014451238 -0.030328704 -0.029489899 -0.020907648 0.03905646 -0.035045754
0.0105694765 0.037350297 -0.029722072 -0.020627074 -0.017978705 0.029885795 -0.040840477 -0.009364497
0.015966916 0.045672365 0.01834409 0.019813782 -0.020868275 0.0015121581 -0.0012344322 0.007868125
0.01941738 0.005548706 -0.030134248 -0.028695328 0.025856154 0.006411401 0.017031087 -0.036161162
0.020247443 0.037478983 0.0021247398 -0.029551223 0.019788472 -0.031666256 0.00736769 -0.037729006
-0.043279704 -0.013441558 -0.0005426605 -0.03218242 -0.017790722 0.024554979 0.010100109 0.025293974
0.0028929538 0.02693759 -0.013525413 -0.038439196 0.0032556062 0.034919605 -0.031224493 -0.027270846
-0.0032576234 -0.040382743 0.027559439 0.008250754 0.008159154 -0.037072126 0.048849296 0.0065274853
-0.01197343 0.0072816415 -0.024377855 0.02936936 0.028707936 -0.028901484 0.015079933 0.030514775
0.027433425 -0.0005706483 0.01853158 0.039537907 -0.008647661 -0.0065780506 0.010233003 0.019376853
-0.034897715 -0.025413938 -0.010153352 0.031158552 0.0138264615 0.008383216 0.0050488813 -0.0014567381
0.024795927 0.038939264 -0.017366529 0.022348542 -0.014417781 0.012016769 0.03544002 -0.015387077
0.029802017 -0.007538342 0.030213084 0.005180137 0.0058258693 -0.03683727 -0.0056546526 -0.028681073
0.03341992 -0.027129762 0.03419406 0.006218572 -0.015831409 -0.018499946 -0.029328818 -0.0023795797
-0.03267062 -0.02002374 0.029730788 -0.0064616133 0.04126318 -0.006448854 -0.016043615 -0.024744367
0.027776787 0.016373586 -0.010492702 -0.0075608646 -0.010802723 -0.036389083 -0.008215663 0.008864149
-0.034138024 0.03043526 0.042307533 0.012709449 -0.002717625 0.034390062 0.011088502 -0.02038243
0.043721203 0.009447004 0.024747947 -0.03245387 0.008184176 0.0075983517 -0.009425835 -0.0313034
-0.007231586 -0.008043839 0.002906416 -0.047700208 -0.04191909 0.00023948679 0.011168368 -0.041405514
0.035867885 -0.02333216 0.04373056 0.005469208 -0.0020113492 -0.019702394 0.015512758 -0.04324884
0.032420956 0.007057797 0.021034036 -0.014104016 -0.030892821 -0.029626086 0.021179615 -0.030183798
-0.018784601 0.042840824 -0.037736975 -0.027261937 0.030660316 0.033323716 0.0070867403 0.015383679
00000000: a0f5 36bb 5d70 bdbc f9e4 0f3d 9184 25bd
00000010: 7889 03bd 4f8b 45bc f18b 99bc fd2e fbbb
00000020: 8afa dc3c a2a0 f43c 86f2 a8bc 1b20 16bd
00000030: 5395 153c 3536 23bc 4e61 fc3c e42e 2e3b
00000040: 1d35 c5bc 4393 d1bb 025c 1fbd e2bc 6139
00000050: f930 27bd f8c5 0f3d 56dd ed3c 70c2 393c
00000060: 0577 073c d136 b0bb 1dc8 383c 0fe6 d7bb
00000070: 4f3b 0b3d e4b0 d83c dd86 653c 96ca 803c
00000080: fecd 00bc fa9e 2cbc 49b7 b13c f070 3b3c
00000090: bb97 eebc d2c7 0b3d 051e eebc a5d1 06bd
000000a0: 6cd2 30bc b5f3 a03c bc54 f5bc 7c3a 8cbc
000000b0: 9cb4 6c3c 14c1 0dbd f0ac 14bd 215c 9fbb
000000c0: d2d9 e8bb 5ae1 d63c a058 053c dba8 e23c
000000d0: 5367 e5bc 7b85 45bb 40d2 273d 57f7 abbc
000000e0: 61c6 84bc b450 c3bc b05e cfbc 6c79 353d
000000f0: 51b4 053d 2e30 1d3d 6a9a 9cbc b8f6 ccbc
00000100: 48c9 4bbc f199 19bc c119 03bc bff7 ef3c
00000110: 47e7 403d b1a4 4fbd 57b8 94bc 96d5 15bd
00000120: 7290 dc3c 5b0e 09bd d403 20bc 47d1 603c
00000130: c5b1 e53c 8816 303d c648 1bbd 4407 cdbb
00000140: 079b d43c db3c 0f3c e3c4 6cbc e773 f8bc
00000150: cd94 f1bc 8446 abbc abf9 1f3d 238c 0fbd
00000160: 992b 2d3c a0fc 183d b47b f3bc 1cfa a8bc
00000170: 1448 93bc 0ed3 f43c 5848 27bd 8c6d 19bc
00000180: 0dcd 823c f212 3b3d 5846 963c 8350 a23c
00000190: f2f3 aabc 9b33 c63a accc a1ba 4fe9 003c
000001a0: 3311 9f3c ebd1 b53b 19dc f6bc 7712 ebbc
000001b0: 49d0 d33c bb16 d23b c784 8b3c ba1d 14bd
000001c0: f7dd a53c 9083 193d 383f 0b3b 6815 f2bc
000001d0: 6f1b a23c 7ab4 01bd aa6c f13b bb89 1abd
000001e0: 0f46 31bd fb39 5cbc 5441 0eba b7d1 03bd
000001f0: d9bd 91bc 8627 c93c ed7a 253c 4f35 cf3c
00000200: b697 3d3b 39ac dc3c b299 5dbc 6b72 1dbd
00000210: 025c 553b dc07 0f3d 82ca ffbc 1c67 dfbc
00000220: da7d 55bb 6068 25bd 55c4 e13c 2c2e 073c
00000230: f9ad 053c f1d8 17bd 3316 483d 84e4 d53b
00000240: 352c 44bc d69a ee3b 11b4 c7bc 0398 f03c
00000250: e82c eb3c cec2 ecbc d311 773c 1ffa f93c
00000260: 10bc e03c 8f97 15ba 8acf 973c 80f2 213d
00000270: ebae 0dbc b08c d7bb 53a8 273c 35bc 9e3c
00000280: e8f0 0ebd e430 d0bc 3f5a 26bc 3840 ff3c
00000290: 6288 623c c259 093c 1671 a53b 05f0 beba
000002a0: d420 cb3c c77e 1f3d 4044 8ebc 4a14 b73c
000002b0: 8e38 6cbc fbe1 443c 8e29 113d 141a 7cbc
000002c0: 5c23 f43c 3204 f7bb 6e81 f73c 24be a93b
000002d0: efe6 be3b ade2 16bd aa4a b9bb 92f4 eabc
000002e0: 53e3 083d 3c3f debc 120f 0c3d 2ac5 cb3b
000002f0: dfb0 81bc 338d 97bc fd42 f0bc b9f2 1bbb
00000300: a1d1 05bd d408 a4bc fb8d f33c f1bb d3bb
00000310: 9503 293d e950 d3bb e66d 83bc b3b4 cabc
00000320: 258c e33c e621 863c 95e9 2bbc 21c1 f7bb
00000330: e7fd 30bc b80c 15bd fd9a 06bc f03a 113c
00000340: 50d4 0bbd 5e53 f93c aa4a 2d3d 4b3b 503c
00000350: 2e1a 32bb 98dc 0c3d 8cac 353c 0ef9 a6bc
00000360: 0115 333d 9bc7 1a3c 35bc ca3c 59ee 04bd
00000370: ec16 063c 98fb f83b d16e 1abc fe37 00bd
00000380: f1f6 ecbb 4eca 03bc 9279 3e3b 4b61 43bd
00000390: 5ab3 2bbd bf1e 7b39 88fb 363c d498 29bd
000003a0: 34ea 123d 1623 bfbc d11e 333d 0b37 b33b
000003b0: d7d0 03bb ea66 a1bc 3929 7e3c b225 31bd
000003c0: d6cb 043d 1845 e73b 924f ac3c 8814 67bc
000003d0: f112 fdbc 68b2 f2bc df80 ad3c 0344 f7bc
000003e0: 2ae2 99bc dc79 2f3d 1692 1abd 6d54 dfbc
000003f0: 582b fb3c 737e 083d e337 e83b d40b 7c3c

base_model.model.gpt_neox.layers.1.attention.query_key_value.lora_B.weight f4 [1536, 16]
-0.0013998987 0.0030297553 -0.0013828462 0.002843191 0.0026731752 0.0026593078 -0.002645996 0.0013924909
-0.0067525483 -0.00037049665 -0.002510314 -0.0012795627 -0.0040606437 -0.0017635757 0.0004393643 0.005763902
-0.00015900299 -0.003585792 0.00051032164 -0.0005118146 -0.0046234606 0.0009670338 0.00032057406 0.0020271838
6.221317e-05 0.003862841 0.0043358654 -0.0021994207 0.0017133948 0.0012568603 -0.0015634055 0.0007500484
0.0009870087 0.0037575515 -0.005605815 -0.004224709 0.002962885 0.00010644651 0.00019676035 -0.006016962
0.008588934 -0.001361526 0.007673855 0.0063262987 0.0007689383 -0.0011028342 -0.004075705 -0.0014090278
-0.0059331125 -0.008447459 0.0066337315 -0.0019547099 -0.0031756952 0.00044276746 0.004969075 -0.0025463924
-0.00039864567 0.0038393277 -0.003106725 0.0027091466 -0.00040350994 0.0043889093 -0.0009461891 0.0035580257
-0.0044601043 0.00053505105 -0.0008160083 -0.0009711587 -0.00096572796 -0.0002501506 0.0012182259 -0.002645429
-0.0034625323 0.00032803256 -0.0054613384 0.0015472868 0.0008360936 0.0022138862 -0.001311936 -0.0027021419
0.0020051529 -0.00048046862 -0.0018861342 -0.0011872901 -0.0034878189 -0.0043573743 0.0012671942 0.0023271048
-0.00017189502 0.0061197034 0.0020683587 -0.00047721228 -0.0042140847 0.007566173 -0.00030866227 0.0024944518
-0.004911396 0.0013690253 0.0020925202 0.004708081 -0.0017852791 -0.009913162 0.0042726886 8.5894164e-05
-0.0004182241 0.0019690946 0.000973582 -0.006349731 -0.0019807657 0.00082874566 -0.0022534956 0.0014686642
0.00086437666 -0.002096845 5.3561424e-05 0.0019846014 -0.0032821163 0.006300345 0.00042412136 -9.912864e-06
0.002208724 0.0018973866 -0.0071293577 -0.006089607 0.002425095 -0.0008964915 0.005101318 0.00012645703
-0.0036391607 -0.0066300756 -0.0026086508 -0.0027867556 -0.0009912602 -0.0029395535 0.0076895957 -0.0050796447
-0.0015870734 -0.0048791654 0.007874564 -0.0060390555 0.0019890936 0.0015895546 0.0018180523 -0.00015524769
-0.0015832026 -0.002402447 0.006560862 0.0037452374 0.0028078111 -0.000806223 -0.0026584417 0.0025365131
-0.004428614 0.0031253255 -0.002707318 0.0004944889 0.0037856086 0.009405072 0.0029759859 -0.003957582
-0.00035481373 0.004154718 0.0010849723 0.0037676352 0.0013925411 0.008941566 -0.0037091228 0.0019051402
0.0034695773 -0.0019489068 -0.0022096052 0.0016046764 0.0029827591 -0.00019070959 0.005284238 -0.00084593805
-0.0013147484 -0.0025342233 0.0013448454 0.0055156895 0.0015646047 0.0014013425 -0.0003868481 -0.006556852
0.0008015904 0.004034816 0.0052008405 -0.007500316 -0.004079772 -0.0016272871 0.008855121 0.003621117
0.0014124139 -0.0057583274 0.0049995645 -0.00054565456 -0.0064228163 0.0043669646 0.0026503576 0.0015891648
-0.0050747376 -0.00031906168 -0.0052962103 -0.0044118324 -0.002107702 -0.0027058874 0.0027087445 -0.0018526901
0.00028241967 -0.0020223234 0.008262834 0.0054622185 0.006031156 0.0015305512 0.0037729563 0.005929648
-0.0013062961 -3.6725723e-05 -0.0021936684 -0.0021157272 -0.004521628 0.0024453541 -0.0016139933 -0.0026870635
0.004114487 0.0029540996 0.0024515775 0.00080415065 -0.00036217645 0.006608112 -0.0006079149 -0.0033161615
-0.003987353 0.0007255003 -0.0006766929 -0.0019923048 -0.0048281895 -0.0048134127 -0.0019983156 -0.00120139
0.0012481936 -0.005172196 0.0009779272 0.0050211027 0.0012841262 0.0071722907 -0.004989241 0.0012441742
-7.178665e-05 0.00038569624 0.00028978608 0.002661188 0.0043327184 0.0020363952 -0.0028839346 -0.0041255048
00000000: ce7c b7ba dc8e 463b 9e40 b5ba d454 3a3b
00000010: 7030 2f3b c847 2e3b 7268 2dbb 3e84 b63a
00000020: 7b44 ddbb 383f c2b9 1584 24bb 00b7 a7ba
00000030: 260f 85bb c827 e7ba 7a5a e639 1ddf bc3b
00000040: 0aba 26b9 9bff 6abb 1bc7 053a 4c2b 06ba
00000050: 6680 97bb 8a80 7d3a b912 a839 80da 043b
00000060: 7178 8238 b827 7d3b e013 8e3b 2824 10bb
00000070: fd93 e03a 3cbd a43a 2feb ccba e59e 443a
00000080: 845e 813a 4141 763b fcb0 b7bb 6d6f 8abb
00000090: f62c 423b 093c df38 7451 4e39 f029 c5bb
000000a0: 9ab8 0c3c 3b75 b2ba f674 fb3b d74c cf3b
000000b0: 9392 493a fa8c 90ba 7e8d 85bb 21af b8ba
000000c0: 8e6a c2bb 3667 0abc c65f d93b 971a 00bb
000000d0: 531f 50bb 3e23 e839 9fd3 a23b 60e1 26bb
000000e0: 5101 d1b9 3b9d 7b3b 329a 4bbb f08b 313b
000000f0: 308e d3b9 d7d0 8f3b ad09 78ba c42d 693b
00000100: 1126 92bb ab42 0c3a 64e9 55ba 5b95 7eba
00000110: e828 7dba a526 83b9 e1ac 9f3a ef5e 2dbb
00000120: a7eb 62bb c9fb ab39 07f5 b2bb 54ce ca3a
00000130: 4b2d 5b3a d916 113b 44f5 abba 6b16 31bb
00000140: e268 033b 68e7 fbb9 2938 f7ba d89e 9bba
00000150: e493 64bb 4ec8 8ebb fb17 a63a 5782 183b
00000160: b83e 34b9 cb87 c83b 4d8d 073b 5932 fab9
00000170: 4e16 8abb a9ed f73b f3d3 a1b9 f579 233b
00000180: c7ef a0bb de70 b33a aa22 093b 3f46 9a3b
00000190: 0700 eaba d16a 22bc e901 8c3b 1422 b438
000001a0: 1745 dbb9 ed0b 013b fb37 7f3a 6711 d0bb
000001b0: bccf 01bb 2e40 593a 62af 13bb 3180 c03a
000001c0: 5697 623a 396b 09bb 24a7 6038 1610 023b
000001d0: c618 57bb 2073 ce3b 9b5c de39 6d4f 26b7
000001e0: 3dc0 103b bbb1 f83a 639d e9bb 538b c7bb
000001f0: 58ee 1e3b 8702 6bba f528 a73b 8d99 0439
00000200: fc7e 6ebb 1b41 d9bb e6f5 2abb 00a2 36bb
00000210: 2ced 81ba 86a5 40bb 01f9 fb3b 2673 a6bb
00000220: 5905 d0ba 68e1 9fbb 5104 013c 45e3 c5bb
00000230: 745b 023b 9a58 d03a b64b ee3a fcc9 22b9
00000240: 7783 cfba 5f72 1dbb 80fc d63b a872 753b
00000250: 4103 383b b658 53ba 4039 2ebb a13b 263b
00000260: e81d 91bb 43d2 4c3b 426d 31bb 97a0 013a
00000270: f917 783b bb17 1a3c c208 433b 9bae 81bb
00000280: 4b06 bab9 4d24 883b a135 8e3a 6eea 763b
00000290: ed85 b63a a57f 123c c114 73bb e6b5 f93a
000002a0: d961 633b 7672 ffba 06cf 10bb 0154 d23a
000002b0: 657a 433b 37f9 47b9 6727 ad3b f1c1 5dba
000002c0: a353 acba 3615 26bb 8645 b03a f5bc b43b
000002d0: 6c13 cd3a 40ad b73a e0d1 cab9 dcda d6bb
000002e0: d221 523a 7d36 843b d06b aa3b 36c5 f5bb
000002f0: 9caf 85bb b24a d5ba 1215 113c 4350 6d3b
00000300: bf20 b93a 5ab0 bcbb 63d3 a33b 420a 0fba
00000310: 7d76 d2bb c118 8f3b 9fb1 2d3b 864b d03a
00000320: fc49 a6bb bc47 a7b9 d58b adbb 2291 90bb
00000330: 5f21 0abb 4255 31bb 3185 313b f7d5 f2ba
00000340: ba11 9439 f588 04bb d660 073c 69fc b23b
00000350: 01a1 c53b c79c c83a b443 773b 7e4d c23b
00000360: 0638 abba f209 1ab8 a6c3 0fbb 03a8 0abb
00000370: 2a2a 94bb 3c42 203b a18c d3ba 7219 30bb
00000380: d2d2 863b 9199 413b a5aa 203b a3cd 523a
00000390: 80e2 bdb9 dc88 d83b 7a5c 1fba f553 59bb
000003a0: 57a8 82bb 802f 3e3a 1764 31ba 5491 02bb
000003b0: ca35 9ebb d5b9 9dbb 2cf6 02bb f677 9dba
000003c0: 6d9a a33a 867b a9bb cb2d 803a 1088 a43b
000003d0: 2050 a83a 8905 eb3b c97c a3bb 8f13 a33a
000003e0: 2a8c 96b8 4637 ca39 6eee 9739 5367 2e3b
000003f0: 7af9 8d3b 0b75 053b 6500 3dbb 3e2f 87bb

base_model.model.gpt_neox.layers.2.attention.query_key_value.lora_A.weight f4 [16, 512]
0.034522817 -0.03686756 -0.005001772 0.011902197 -0.03460429 -0.025830504 -0.022495676 0.0037203776
0.043669686 -0.009971739 0.008649947 0.024678411 0.033970773 -0.005277724 -0.020604901 0.031549487
0.02109071 -0.039347112 -0.038905375 0.023091005 -0.0039889566 0.022912567 -0.0055947574 0.03369767
0.03715661 0.037934277 -0.0029829037 0.029121332 -0.0006913603 0.008212175 0.03391078 -0.0046666088
-0.012902214 -0.0023063251 -0.0034222824 0.043010227 0.0213677 -0.04152587 0.005386034 0.019847607
0.041705757 -0.02070102 0.02349273 -0.024567524 0.00047084465 0.033829592 0.014588727 -0.016776338
0.009583766 -0.026160404 -0.025083669 0.025579771 0.032834962 -0.033232957 0.02378611 0.025317762
0.03407169 0.019811116 -0.030781087 -0.012722298 0.014989424 0.0110446075 0.040811647 0.0033054815
-0.04475799 -0.04374945 -0.04002474 -0.019783543 -0.009997376 0.03599803 -0.011613329 0.03681478
0.0040086745 0.004110918 -0.008954204 0.026766097 -0.018202314 -0.0017595342 -0.036878984 0.026056215
-0.015645403 0.0006272404 -0.007579185 0.013931029 -0.041085366 0.039619405 -0.017456438 0.023247251
0.03576036 0.002460143 -0.024481118 -0.0013637834 -0.010602383 -0.011549721 -0.02616905 -0.034645718
0.04368963 0.0024588653 0.021083951 -0.0057627624 0.034338076 0.027730444 0.042370334 0.033087928
-0.025175458 0.027486363 -0.003091249 -0.03692917 0.033710085 -0.04625803 0.02335963 0.024018174
-0.012410949 0.018180186 -0.041796856 0.035517175 -0.02252209 -0.009503249 -0.03676162 0.03430553
-0.027494239 -0.035797413 0.024223113 0.03307804 0.035416476 0.01573947 0.047974944 -0.041371513
0.046039544 0.010125787 -0.01154384 -0.040655795 -0.0024858536 -0.0117383795 0.0172442 -0.011535524
0.013823565 -0.014377223 -0.014833665 -0.01669822 0.041347884 -0.0018914718 -0.030369116 0.043733064
-0.0016740626 0.01932529 -0.016687902 0.021117179 -0.018204395 0.039367333 -0.031752013 -0.017481662
-0.0050802934 -0.018760664 0.03637124 0.00771802 -0.013684418 0.023667203 -0.0036972752 0.036680598
0.037570704 0.03286681 0.041943256 0.039321657 0.016376292 -0.030724308 -0.014270593 0.025603866
0.005735325 0.0044390103 -0.027530937 0.017501852 0.022468306 0.03158813 0.020165043 0.04350549
-0.032491144 -0.021684242 0.03539475 -0.034845203 -0.019276962 -0.0044097896 -0.01952396 0.01633783
-0.022020437 -0.021912372 -0.019777188 0.0036717807 0.014678693 -0.021935282 -0.03113468 -0.011461602
-0.005582473 -0.010899804 0.024874065 -0.01842184 -0.022945564 0.02803692 0.0022767766 0.015144716
0.017025134 0.020622274 0.040526573 0.01861527 -0.025212985 -0.040083926 -0.017939394 0.011247813
-0.013008265 0.010980692 -0.017483229 -0.045069333 0.030186238 0.01062644 -0.028660882 -0.0029523633
-0.029175594 0.028355362 0.018122783 -0.032893065 -0.0069153607 -0.029520085 0.026488619 0.043248158
-0.0058492585 -0.021808123 0.027359342 0.007385381 0.032178394 -0.01650473 0.016377885 0.025985917
-0.003836034 -0.021062138 -0.015615461 0.034296565 -0.017041968 0.022355085 0.037740346 0.026333373
-0.00074391556 -0.037344426 -0.0013068899 0.01905021 0.004290774 -0.014088036 -0.039805125 0.034176275
0.0006201189 0.03309508 0.035812236 0.022637937 -0.018966906 0.03910792 0.022860784 -0.007702239
00000000: cc67 0d3d 7002 17bd e8e5 a3bb 6f01 433c
00000010: 3abd 0dbd 7e9a d3bc da48 b8bc 94d1 733b
00000020: fcde 323d 8160 23bc 82b8 0d3c 612a ca3c
00000030: f024 0b3d c2f0 acbb 9ccb a8bc 093a 013d
00000040: 6dc6 ac3c 702a 21bd 3e5b 1fbd 5929 bd3c
00000050: cbb5 82bb 23b3 bb3c 3a54 b7bb 9106 0a3d
00000060: 8831 183d f960 1b3d d27c 43bb dc8f ee3c
00000070: 683c 35ba 5c8c 063c 08e6 0a3d 5aea 98bb
00000080: cf63 53bc b725 17bb 5f48 60bb 7e2b 303d
00000090: 510b af3c 0817 2abd 547d b03b 7397 a23c
000000a0: a8d3 2a3d 2f95 a9bc d373 c03c d541 c9bc
000000b0: b3db f639 e690 0a3d 8e05 6f3c 886e 89bc
000000c0: 3a05 1d3c 584e d6bc 447c cdbc ab8c d13c
000000d0: f47d 063d 481f 08bd 17db c23c 3267 cf3c
000000e0: c28e 0b3d ec4a a23c 9e28 fcbc 2f71 50bc
000000f0: 3396 753c 71f4 343c 1d2a 273d c7a0 583b
00000100: 2754 37bd a032 33bd fbf0 23bd 1911 a2bc
00000110: 09cc 23bc ac72 133d d545 3ebc 18cb 163d
00000120: 335b 833b e1b4 863b a7b4 12bc 9344 db3c
00000130: 051d 95bc 2ca0 e6ba 6b0e 17bd d873 d53c
00000140: ca2a 80bc 646d 243a d05a f8bb f83e 643c
00000150: 2149 28bd f547 223d ce00 8fbc 0571 be3c
00000160: 7579 123d 5a3a 213b a08c c8bc fac0 b2ba
00000170: 9eb5 2dbc 0a3b 3dbc 7a60 d6bc abe8 0dbd
00000180: e6f3 323d ea24 213b 40b8 ac3c 8ed5 bcbb
00000190: 15a6 0c3d f52a e33c 848c 2d3d 3587 073d
000001a0: c33c cebc 152b e13c 8d96 4abb 0b43 17bd
000001b0: 9613 0a3d 0f79 3dbd b25c bf3c c3c1 c43c
000001c0: 4b57 4bbc 9dee 943c 2e33 2bbd 757a 113d
000001d0: 3f80 b8bc 84b3 1bbc 5a93 16bd f583 0c3d
000001e0: 993b e1bc 4fa0 12bd 8d6f c63c d77c 073d
000001f0: de10 113d 10f0 803c 6081 443d 2d75 29bd
00000200: f693 3c3d a1e6 253c 6022 3dbc b186 26bd
00000210: b4e9 22bb 5552 40bc b543 8d3c 7fff 3cbc
00000220: 3c7c 623c 728e 6bbc e708 73bc b5ca 88bc
00000230: 665c 293d 43eb f7ba a7c8 f8bc 7121 333d
00000240: 386c dbba 1250 9e3c 11b5 88bc effd ac3c
00000250: 6221 95bc a43f 213d 660e 02bd b435 8fbc
00000260: 9778 a6bb f7af 99bc 02fa 143d 72e7 fc3b
00000270: 9c34 60bc b9e1 c13c fc4d 72bb 653e 163d
00000280: bde3 193d 599f 063d b1cc 2b3d bf0f 213d
00000290: 9327 863c 8bb1 fbbc 35cf 69bc 33bf d13c
000002a0: 65ef bb3b 1e75 913b 8f88 e1bc 0b60 8f3c
000002b0: 740f b83c 8e62 013d 2931 a53c d032 323d
000002c0: 6f15 05bd 27a3 b1bc 16fa 103d d8b9 0ebd
000002d0: b8ea 9dbc ff7f 90bb b6f0 9fbc ead6 853c
000002e0: 3464 b4bc 9381 b3bc c503 a2bc 42a2 703b
000002f0: e77e 703c 9fb1 b3bc 280e ffbc 71c9 3bbc
00000300: 2ded b6bb 1795 32bc b2c4 cb3c 66e9 96bc
00000310: 56f8 bbbc afad e53c f935 153b 8b21 783c
00000320: 4b78 8b3c 0bf0 a83c 31ff 253d 0d7f 983c
00000330: 768b cebc 0b2f 24bd a3f5 92bc bf48 383c
00000340: 9e20 55bc 5ce8 333c fd38 8fbc 9f9a 38bd
00000350: 2149 f73c 851a 2e3c 3aca eabc 707c 41bb
00000360: a801 efbc 8149 e83c 3b76 943c e1ba 06bd
00000370: 409a e2bb 1bd4 f1bc a9fe d83c fb24 313d
00000380: 23ab bfbb f3a6 b2bc b320 e03c 1101 f23b
00000390: 7ecd 033d ed34 87bc ea2a 863c 6be0 d43c
000003a0: f965 7bbb 818a acbc fed7 7fbc 8e7a 0c3d
000003b0: 999b 8bbc 0322 b73c 9f95 1a3d 16b9 d73c
000003c0: 5403 43ba 78f6 18bd f34b abba 300f 9c3c
000003d0: 9f99 8c3b 81d1 66bc b30a 23bd 6cfc 0b3d
000003e0: 7a8f 223a b58e 073d daaf 123d 3273 b93c
000003f0: 7c60 9bbc a02f 203d 8a46 bb3c 1063 fcbb

base_model.model.gpt_neox.layers.2.attention.query_key_value.lora_B.weight f4 [1536, 16]
0.0074181715 -0.0010029839 -0.001587521 -0.0034021123 -0.0009842393 -0.0026292852 -0.0038495937 0.0060174842
-0.00038080194 -0.0020297272 0.0014191834 -0.0038373442 0.0036567606 0.004455829 0.000159657 -0.0015272361
0.0022667302 -0.001207775 -0.004251174 0.0047330973 -0.00045675927 -0.0023138814 0.0055418154 0.0016006823
0.0011894468 -0.0021841715 0.005189717 0.004256223 0.0003410434 0.0014437251 -0.001807127 0.0016733513
-0.0016768754 0.0015701127 0.0006365083 -0.0023035272 0.0047408044 0.0038582252 0.0077824634 0.0004819144
0.002935484 -0.0073798816 0.0073493826 -0.0037298843 -0.0020885502 0.0014980503 -0.005749739 0.00023331455
-0.0013666217 0.0044646785 0.0074079623 0.0039564962 -6.1666135e-05 -0.00843763 0.00029093423 0.0014164894
0.0025266989 -0.0063623064 0.00062623835 0.00066544773 0.00036908704 -0.0022953963 -0.0021131115 -0.0009089722
0.0013884163 0.0035922802 -0.0026915295 -0.0022459824 -0.00037344973 -0.0040003145 -0.0028824063 0.006241635
-0.005764336 0.0023197825 0.0022915413 0.0024417052 -0.00088130054 0.0021699676 0.0024094705 0.00020406935
0.0012089973 -0.0047510173 -0.0008936416 -0.0024623757 -0.0015880364 -0.0010105552 0.006483863 0.0043749637
-1.6468888e-05 0.0016583498 3.7316626e-05 0.0054840175 -0.0031593805 0.00050552195 0.0008347626 0.010808688
0.003441115 -0.00052594085 -0.003395926 -0.004354811 -0.0005288492 -0.004095006 0.004073847 -0.00090761104
0.001714626 -0.0019478572 -0.004146743 -0.001745092 0.0033398324 0.0030960748 -0.0021035832 0.00084136665
-0.00013558319 0.00321602 0.0039140857 -0.0038079338 -0.008249976 0.0001883035 0.0037050587 -0.0019280165
0.001312281 0.00097117975 -0.004336847 0.006724338 -0.002061099 0.00040706302 0.000823902 0.0025351762
0.0029542672 -0.0017916979 0.0012288393 0.002809844 -0.005273611 -0.0017882092 -0.002833918 -0.0080386605
-0.00077695615 -0.0036145588 0.00045873705 -0.000710905 -0.00821324 -0.00010358702 0.00061065744 0.0045201993
-0.0034230486 -0.00067353324 -0.0050382074 -0.0031142605 0.004400993 0.010896373 0.002388275 -0.0011440769
0.0019361569 0.0015591852 0.00029741292 0.0006711957 0.0030151326 0.0077599245 -0.0026837543 0.0032235563
0.010406869 0.0016569288 -0.0008771838 0.0047362256 -0.006220266 -0.0027818524 -0.0022943036 0.0017202415
0.0028386512 -0.0019307166 0.0011916585 0.0073448946 -0.0020005002 0.00036987255 -0.0039677024 -0.00069694774
0.003334822 0.00053151284 -0.0015816055 0.003685439 0.0037326827 -0.0058376817 -0.001500282 -0.00067093695
-0.0028822226 0.0015854111 0.001020313 0.0038017088 0.0011998583 -0.0028794373 -0.002274448 -0.0024229686
-0.0012905704 -0.008471384 0.0077203307 0.0014986387 -0.00075399614 0.0058536856 0.0033912372 0.004731868
0.0019876326 0.0017813626 -0.0048916186 6.0111415e-05 -0.0014838385 0.0022514826 -0.0032773123 0.004152572
0.0015948121 -0.0014910992 0.0069986917 0.002270171 -0.0016820683 0.0015379454 -0.00013693367 -0.00027155055
0.0011830475 0.0026194649 -0.00035806163 -0.0005659211 0.0019136365 -0.00083252974 -0.0017030676 -0.007973189
-0.007292651 -0.0009215059 -0.002112101 -0.0037868014 -0.0030999486 -0.0036946146 -0.007412527 0.00039238477
0.004885356 -0.0053711827 0.006942501 0.0023499392 0.004539381 0.0020838657 -0.0022663104 0.003893471
-0.0043157223 0.0014954167 0.0020116111 0.0024317137 0.0017249142 -0.0017753534 0.0018355139 -0.002038396
-0.0026368247 -0.0063892766 0.0010958683 -0.0028377667 -0.0019706315 -0.0064928844 -0.00017736576 -0.0024277603
00000000: 2214 f33b 8e76 83ba 5e14 d0ba f9f5 5ebb
00000010: 9701 81ba 1650 2cbb 7749 7cbb 512e c53b
00000020: 5fa6 c7b9 2c05 05bb e503 ba3a f47b 7bbb
00000030: 43a6 6f3b 3402 923b 9969 2739 8a2d c8ba
00000040: 6c8d 143b 344e 9eba 6f4d 8bbb 1918 9b3b
00000050: 3179 efb9 7da4 17bb 1e98 b53b fccd d13a
00000060: 36e7 9b3a 5124 0fbb 800e aa3b c977 8b3b
00000070: 12ce b239 603b bd3a 1fdd ecba 5a54 db3a
00000080: 9aca dbba 3dcc cd3a 59db 263a c6f6 16bb
00000090: c058 9b3b 47da 7c3b 0904 ff3b 75a9 fc39
000000a0: 4061 403b efd2 f1bb 17d3 f03b 1371 74bb
000000b0: 0fe0 08bb 3a5a c43a 4e68 bcbb e6a5 7439
000000c0: 3720 b3ba 704c 923b 7ebe f23b 7fa5 813b
000000d0: c152 81b8 fc3d 0abc 8888 9839 7fa9 b93a
000000e0: f996 253b e57a d0bb 252a 243a 7171 2e3a
000000f0: 0682 c139 5c6e 16bb 217c 0abb 1748 6eba
00000100: 85fb b53a 766c 6b3b 5f64 30bb 5531 13bb
00000110: 93cb c3b9 1215 83bb c1e6 3cbb a186 cc3b
00000120: c1e2 bcbb 7e07 183b af2d 163b 0405 203b
00000130: 1407 67ba 0436 0e3b 35e8 1d3b 73fb 5539
00000140: 3877 9e3a 6cae 9bbb 4643 6aba cf5f 21bb
00000150: a925 d0ba 9b74 84ba 9676 d43b db5b 8f3b
00000160: ab26 8ab7 fc5c d93a 6c84 1c38 46b3 b33b
00000170: 9c0d 4fbb 0185 043a f8d3 5a3a ec16 313c
00000180: 5484 613b 4bdf 09ba 2f8e 5ebb cdb2 8ebb
00000190: 78a2 0aba 662f 86bb e87d 853b bfec 6dba
000001a0: 4dbd e03a 3e4f ffba 67e1 87bb 92bb e4ba
000001b0: 17e1 5a3b 84e7 4a3b 45dc 09bb 298f 5c3a
000001c0: 562b 0eb9 ddc3 523b bb41 803b 878e 79bb
000001d0: e82a 07bc 5673 4539 92d0 723b 80b5 fcba
000001e0: d800 ac3a c596 7e3a 1c1c 8ebb d657 dc3b
000001f0: 8113 07bb 136b d539 21fb 573a 3325 263b
00000200: 619c 413b 68d7 eaba 0111 a13a 5c25 383b
00000210: 41ce acbb 5862 eaba 41b9 39bb 96b4 03bc
00000220: a5ac 4bba 3ce2 6cbb a582 f039 075c 3aba
00000230: d390 06bc dc3c d9b8 8714 203a 2e1e 943b
00000240: 3a55 60bb 0d90 30ba 8c17 a5bb 9f18 4cbb
00000250: 3536 903b b386 323c 9b84 1c3b daf4 95ba
00000260: a5c6 fd3a 935d cc3a 16ee 9b39 2ef3 2f3a
00000270: 8899 453b f746 fe3b ede1 2fbb 4d42 533b
00000280: 9381 2a3c 4e2d d93a cff2 65ba 5732 9b3b
00000290: 60d3 cbbb bd4f 36bb 075c 16bb ba79 e13a
000002a0: aa08 3a3b 1910 fdba 6d31 9c3a 71ad f03b
000002b0: d31a 03bb 74eb c139 8003 82bb 5fb3 36ba
000002c0: 078d 5a3b 3955 0b3a e04d cfba 6887 713b
000002d0: 06a0 743b 064a bfbb 1ca5 c4ba d1e1 2fba
000002e0: ace3 3cbb 92cd cf3a 06bc 853a 1726 793b
000002f0: 9044 9d3a f1b4 3cbb e80e 15bb abca 1ebb
00000300: 5b28 a9ba 8fcb 0abc d4fa fc3b f86d c43a
00000310: d3a7 45ba 46d0 bf3b 853f 5e3b c90d 9b3b
00000320: f142 023b 9c7c e93a df49 a0bb 2420 7c38
00000330: 5c7d c2ba 9c8d 133b 2dc8 56bb 4c12 883b
00000340: 0409 d13a fd70 c3ba 4855 e53b 26c7 143b
00000350: d978 dcba e294 c93a da95 0fb9 e65e 8eb9
00000360: 7d10 9b3a 54ab 2b3b 38ba bbb9 525a 14ba
00000370: fcd2 fa3a 203e 5aba 7739 dfba faa1 02bc
00000380: 31f7 eebb 3791 71ba 2d6b 0abb fc2b 78bb
00000390: 8228 4bbb 5921 72bb c9e4 f2bb feb8 cd39
000003a0: 5615 a03b bf00 b0bb eb7d e33b 7001 1a3b
000003b0: 16bf 943b 7791 083b 6186 14bb 9b29 7f3b
000003c0: e76a 8dbb dc01 c43a 3cd5 033b 635d 1f3b
000003d0: 8416 e23a fab2 e8ba a095 f03a 9c96 05bb
000003e0: 94ce 2cbb 235d d1bb 3da3 8f3a d3f9 39bb
000003f0: b625 01bb 43c2 d4bb 42fb 39b9 0f1b 1fbb

base_model.model.gpt_neox.layers.3.attention.query_key_value.lora_A.weight f4 [16, 512]
-0.032113813 0.032827884 -0.00036430065 -0.020319236 0.0153588 -0.014742304 -0.027511058 0.040560864
0.011838328 -0.01164549 0.033463165 0.012654683 -0.027184492 -0.021937342 0.03505486 0.019140417
-0.013113573 -0.01988314 -0.036047745 -0.022242 0.019965734 -0.03568514 0.033835918 0.015500113
-0.015439096 -0.0041771224 -0.021631502 -0.01377066 0.015656097 0.027743766 0.04658221 -0.0076641566
0.028559923 0.033435643 -0.008824359 0.0012764334 0.037529614 0.007995802 -0.03449953 -0.010409288
-0.007245221 0.00067248277 -0.032304447 0.013450331 -0.03608097 -0.004966521 0.020642744 0.020669807
-0.038610347 0.021415178 0.029564045 -0.019348614 0.03618514 -0.03864493 0.00134148 -0.024514245
0.0036081874 0.036530446 -0.03637262 0.017356241 0.006532673 -0.011736189 -0.039485063 0.00086632813
0.026328905 -0.015616846 0.029379115 -0.0065695443 -0.003280727 -0.019930428 -0.010605863 -0.0034217704
0.040449988 -0.009424604 0.005754412 -0.011929918 -0.0056928773 0.022534808 -0.0023608361 -0.00044990078
-0.019121498 0.02247525 -0.03345576 -0.037829515 -0.022000805 -0.025349542 -0.01975954 -0.00019226222
0.0041549336 0.035562262 0.021667713 -0.013220438 0.0362748 -0.04447878 -0.021794599 0.02585329
0.009153009 0.028297666 -0.034359973 0.039770555 -0.006222856 0.01785241 0.0047841594 0.028213121
0.007230782 0.020033095 -0.035463404 -0.019209597 -0.01369284 0.031605575 0.01694889 -0.018184002
0.039558694 -0.02390464 -0.0370677 -0.01658465 -0.048926454 0.015530428 -0.04378916 0.034260154
0.034833144 0.04313242 0.026169108 0.013792189 -0.04710365 -0.03617656 -0.018592404 -0.03682568
0.027880687 0.033780362 -0.0109554855 0.04291809 -0.037083033 -0.040864002 -0.043358304 0.02587795
0.029985625 -0.028518908 0.0012346376 0.0017433432 0.04934865 0.034633856 0.0118794 0.017785752
0.039925646 0.02682462 0.010325453 -0.024404204 -0.021620838 -0.012429173 0.025377737 -0.007379207
0.043857723 -0.037750427 -0.01858213 -0.031699404 -0.013335202 -0.0138651775 -0.00093144254 -0.020237783
0.02220028 0.045755815 -0.016281242 0.017470106 0.03863651 0.03265634 0.00876845 0.038155142
-0.031372204 -0.046883404 0.02498635 -0.0037304945 -0.032058552 -0.00022366995 -0.0044818516 -0.041002035
0.017430488 0.032099895 0.0011199953 0.033403024 0.01089933 0.014111725 -0.039074875 -0.003075597
0.036987346 0.018861927 -0.038998548 0.02860774 -0.009377551 -0.030400869 0.028182544 -0.028024515
0.039193753 -0.0015368875 0.029842647 0.025699088 -0.039435178 0.01471766 0.0393377 0.0012942037
0.01520276 -0.029345915 0.0071217082 -0.038302056 0.004941202 -0.033716347 -0.014188104 -0.011817101
0.035474736 0.0031405378 0.029352121 -0.01001481 0.04169511 -0.01966667 -0.03331233 0.0046523814
-0.02579604 -0.018588353 0.042495016 0.0009862481 0.011179793 0.023300046 0.032008868 -0.040549643
-0.024863191 0.038920093 0.01697773 -0.0088582765 -0.041392595 -0.004304588 0.027928397 -0.004153844
-0.020568212 -0.021351684 -0.038994364 0.009469492 -0.0029568223 -0.029994097 -0.0064933654 0.034812376
0.0011185871 0.011114969 0.03485947 0.028379165 0.022771325 0.02379589 -0.03705729 -0.010378987
0.012439566 -0.0122027295 0.027370848 -0.018966839 0.0034264585 -0.04068795 -0.03750119 0.004052125
00000000: c689 03bd 8876 063d 9bff beb9 8774 a6bc
00000010: 7aa3 7b3c b489 71bc df5e e1bc 2623 263d
00000020: 8cf5 413c bacc 3ebc ac10 093d 9655 4f3c
00000030: 03b2 debc f1b5 b3bc af95 0f3d 5dcc 9c3c
00000040: 50da 56bc f8e1 a2bc cda6 13bd db34 b6bc
00000050: 2e8f a33c 952a 12bd 8897 0a3d 30f4 7d3c
00000060: 43f4 7cbc 3ee0 88bb 8c34 b1bc 569e 61bc
00000070: 3741 803c e546 e33c fdcc 3e3d 9b23 fbbb
00000080: 80f6 e93c d0f3 083d 0b94 10bc ff4d a73a
00000090: a7b8 193d d300 033c 614f 0dbd b88b 2abc
000000a0: 5269 edbb 8e49 303a ab51 04bd c75e 5c3c
000000b0: a4c9 13bd 33be a2bb f91a a93c ba53 a93c
000000c0: e225 1ebd e26e af3c 4c30 f23c fc80 9ebc
000000d0: df36 143d 254a 1ebd 99d4 af3a 19d2 c8bc
000000e0: 5777 6c3b f3a0 153d 75fb 14bd ad2e 8e3c
000000f0: 0810 d63b 2549 40bc 17bb 21bd 4c1a 633a
00000100: b7af d73c cddd 7fbc 78ac f03c 5545 d7bb
00000110: 7701 57bb 2345 a3bc 37c4 2dbc c83f 60bb
00000120: e3ae 253d a769 1abc 828f bc3b b475 43bc
00000130: 518b babb eb9a b83c 42b8 1abb a9e0 ebb9
00000140: b0a4 9cbc 041e b83c e808 09bd 1ff3 1abd
00000150: 083b b4bc d8a9 cfbc c2de a1bc ff99 49b9
00000160: 1c26 883b bca9 113d 7d80 b13c 899a 58bc
00000170: e294 143d 622f 36bd 968a b2bc 47ca d33c
00000180: 81f6 153c 82d0 e73c 0bbd 0cbd 73e6 223d
00000190: 1ae9 cbbb 383f 923c 70c4 9c3b 341f e73c
000001a0: 32f0 ec3b 721c a43c 1342 11bd 725d 9dbc
000001b0: ef57 60bc d974 013d 66d8 8a3c 9ef6 94bc
000001c0: 4c08 223d aad3 c3bc 4dd4 17bd 88dc 87bc
000001d0: 1b67 48bd 5673 7e3c 435c 33bd 6054 0c3d
000001e0: 33ad 0e3d 9fab 303d 9960 d63c a2f8 613c
000001f0: c2ef 40bd df2d 14bd 194f 98bc 86d6 16bd
00000200: 0a66 e43c 475d 0a3d a37e 33bc e1ca 2f3d
00000210: 61e4 17bd 0361 27bd 7a98 31bd fffd d33c
00000220: 6aa4 f53c 7ca0 e9bc 90d3 a13a e480 e43a
00000230: cf21 4a3d 3bdc 0d3d d1a1 423c 6db3 913c
00000240: 1389 233d 4ebf db3c 172c 293c 53eb c7bc
00000250: 2f1e b1bc bba3 4bbc f9e4 cf3c 46cd f1bb
00000260: 28a4 333d 31a0 1abd 8d39 98bc 3cd7 01bd
00000270: e47b 5abc c52a 63bc 0d2c 74ba b5c9 a5bc
00000280: 5ddd b53c 736a 3b3d 3d60 85bc 781d 8f3c
00000290: 5141 1e3d a8c2 053d 8ba9 0f3c 9148 1c3d
000002a0: 2480 00bd d008 40bd 2db0 cc3c 507b 74bb
000002b0: d44f 03bd f288 6ab9 7fdc 92bb c0f1 27bd
000002c0: 62ca 8e3c 2e7b 033d cecc 923a 9cd1 083d
000002d0: 1a93 323c dd34 673c fa0c 20bd f58f 49bb
000002e0: 0b80 173d 5484 9a3c f1bc 1fbd c75a ea3c
000002f0: 4da4 19bc 3e0b f9bc 14df e63c ab93 e5bc
00000300: a189 203d 6371 c9ba 9178 f43c e586 d23c
00000310: c886 21bd 5722 713c 9120 213d 45a2 a93a
00000320: ff14 793c d866 f0bc 385d e93b 9ee2 1cbd
00000330: cee9 a13b 271a 0abd 3975 68bc 849c 41bc
00000340: f54d 113d 7bd1 4d3b dc73 f03c 2815 24bc
00000350: 7ec8 2a3d ff1b a1bc 8272 08bd 0173 983b
00000360: 3852 d3bc 9a46 98bc 410f 2e3d ff44 813a
00000370: 732b 373c bddf be3c bb1b 033d 6217 26bd
00000380: e4ad cbbc ad6a 1f3d e114 8b3c 4e22 11bc
00000390: 488b 29bd 800d 8dbb 18ca e43c f81c 88bb
000003a0: ab7e a8bc bae9 aebc 8eb8 1fbd ee25 1b3c
000003b0: 3fc7 41bb 2eb6 f5bc 4cc6 d4bb 6c97 0e3d
000003c0: 8e9d 923a 8f1b 363c cec8 0e3d 6c7b e83c
000003d0: ee8a ba3c 99ef c23c 63c9 17bd a00c 2abc
000003e0: 52cf 4b3c f5ed 47bc d438 e03c 5860 9bbc
000003f0: 6f8e 603b 68a8 26bd d99a 19bd b0c7 843b
